ST Edge AI Core v4.0.1-20581 7ed50de05
Created date          : 2026-06-05 15:48:54
Parameters            : generate --model D:\EmbeddedSystem\Practice\BigHomework\Face_Recongnition\model_stm32\yunetn_320.onnx --valinput D:\EmbeddedSystem\Practice\BigHomework\Face_Detection_STM32\validation_dataset\stedgeai_validation.npz --mode target --name network --verbosity 1 --c-api st-ai --optimization balanced --target stm32h7 --memory-pool D:\EmbeddedSystem\Practice\BigHomework\Face_Recongnition\.ai\mempools.json --workspace D:\EmbeddedSystem\Practice\BigHomework\Face_Recongnition\.ai\run\generate-1\st_ai_ws --output D:\EmbeddedSystem\Practice\BigHomework\Face_Recongnition\.ai\run\generate-1\st_ai_output

Exec/report summary (generate)
--------------------------------------------------------------------------------------------------------------------------------
model file         :   D:\EmbeddedSystem\Practice\BigHomework\Face_Recongnition\model_stm32\yunetn_320.onnx                     
type               :   onnx                                                                                                     
c_name             :   network                                                                                                  
compression        :   lossless                                                                                                 
options            :   allocate-inputs, allocate-outputs, multi-heaps, use-lite-runtime, use-st-ai                              
optimization       :   balanced                                                                                                 
target/series      :   stm32h7                                                                                                  
memory pool        :   D:\EmbeddedSystem\Practice\BigHomework\Face_Recongnition\.ai\mempools.json                               
workspace dir      :   D:\EmbeddedSystem\Practice\BigHomework\Face_Recongnition\.ai\run\generate-1\st_ai_ws                     
output dir         :   D:\EmbeddedSystem\Practice\BigHomework\Face_Recongnition\.ai\run\generate-1\st_ai_output                 
vinput files       :   D:\EmbeddedSystem\Practice\BigHomework\Face_Detection_STM32\validation_dataset\stedgeai_validation.npz   
model_fmt          :   float                                                                                                    
model_name         :   yunetn_320                                                                                               
model_hash         :   0x28cbcb2715420c9ce9d9e3b61204a6be                                                                       
params #           :   73,840 items (288.44 KiB)                                                                                
--------------------------------------------------------------------------------------------------------------------------------
input 1/1          :   'input', f32(1x3x320x320), 1200.00 KBytes, activations                                                   
output 1/12        :   'cls_8', f32(1x1x1600), 6.25 KBytes, activations                                                         
output 2/12        :   'cls_16', f32(1x1x400), 1.56 KBytes, activations                                                         
output 3/12        :   'cls_32', f32(1x1x100), 400 Bytes, activations                                                           
output 4/12        :   'obj_8', f32(1x1x1600), 6.25 KBytes, activations                                                         
output 5/12        :   'obj_16', f32(1x1x400), 1.56 KBytes, activations                                                         
output 6/12        :   'obj_32', f32(1x1x100), 400 Bytes, activations                                                           
output 7/12        :   'node_303', f32(1x40x40x4), 25.00 KBytes, activations                                                    
output 8/12        :   'node_305', f32(1x20x20x4), 6.25 KBytes, activations                                                     
output 9/12        :   'node_307', f32(1x10x10x4), 1.56 KBytes, activations                                                     
output 10/12       :   'node_315', f32(1x40x40x10), 62.50 KBytes, activations                                                   
output 11/12       :   'node_317', f32(1x20x20x10), 15.62 KBytes, activations                                                   
output 12/12       :   'node_319', f32(1x10x10x10), 3.91 KBytes, activations                                                    
outputs (total)    :   131.25 KBytes                                                                                            
macc               :   139,559,296                                                                                              
weights (ro)       :   295,360 B (288.44 KiB) (1 segment)                                                                       
activations (rw)   :   2,517,164 B (2.40 MiB) (2 segments) *                                                                    
ram (total)        :   2,517,164 B (2.40 MiB) = 2,517,164 + 0 + 0                                                               
--------------------------------------------------------------------------------------------------------------------------------
(*) 'input'/'output' buffers are allocated in the activations buffer
 
 Memory-pools summary (activations/ domain)
 ---------------- -------- -------------------------- --------- 
 name             id       used                       buffer#   
 ---------------- -------- -------------------------- --------- 
 DTCMRAM          0        58.17 KiB (45.4%)          74        
 External SDRAM   1        2.34 MiB (29.3%)           55        
 ITCMRAM          unused   -                          0         
 RAM_D1           unused   -                          0         
 weights_array    4        288.44 KiB (29536000.0%)   118       
 ---------------- -------- -------------------------- --------- 
 Warning: ['ITCMRAM', 'RAM_D1'] memory pool s not used

Model name - yunetn_320
------ --------------------------------- ------------------------ -------------- ------------ -------------- --- -------- ------------------ -------------------------------- 
m_id   layer (type,original)             oshape                   param/size             macc   connected to   | c_size   c_macc             c_type                           
------ --------------------------------- ------------------------ -------------- ------------ -------------- --- -------- ------------------ -------------------------------- 
0      input (Input, )                   [b:1,h:320,w:320,c:3]                                                 |                             
------ --------------------------------- ------------------------ -------------- ------------ -------------- --- -------- ------------------ -------------------------------- 
1      node_458 (Conv2D, Conv)           [b:1,h:160,w:160,c:16]   448/1,792        11,059,216          input   |                             Conv2D_[1]                       
------ --------------------------------- ------------------------ -------------- ------------ -------------- --- -------- ------------------ -------------------------------- 
2      node_211 (Nonlinearity, Relu)     [b:1,h:160,w:160,c:16]                       409,600       node_458   |          +153,600(+37.5%)   Transpose_/Nonlinearity_[0, 2]   
------ --------------------------------- ------------------------ -------------- ------------ -------------- --- -------- ------------------ -------------------------------- 
3      node_212 (Conv2D, Conv)           [b:1,h:160,w:160,c:16]   272/1,088         6,553,616       node_211   |                             Conv2D_[3]                       
------ --------------------------------- ------------------------ -------------- ------------ -------------- --- -------- ------------------ -------------------------------- 
4      node_461 (Conv2D, Conv)           [b:1,h:160,w:160,c:16]   160/640           3,686,416       node_212   |                             Conv2D_[4]                       
------ --------------------------------- ------------------------ -------------- ------------ -------------- --- -------- ------------------ -------------------------------- 
5      node_215 (Nonlinearity, Relu)     [b:1,h:160,w:160,c:16]                       409,600       node_461   |                             Nonlinearity_[5]                 
------ --------------------------------- ------------------------ -------------- ------------ -------------- --- -------- ------------------ -------------------------------- 
6      node_216 (Pool, MaxPool)          [b:1,h:80,w:80,c:16]                         409,600       node_215   |                             Pool_[6]                         
------ --------------------------------- ------------------------ -------------- ------------ -------------- --- -------- ------------------ -------------------------------- 
7      node_217 (Conv2D, Conv)           [b:1,h:80,w:80,c:16]     272/1,088         1,638,416       node_216   |                             Conv2D_[7]                       
------ --------------------------------- ------------------------ -------------- ------------ -------------- --- -------- ------------------ -------------------------------- 
8      node_464 (Conv2D, Conv)           [b:1,h:80,w:80,c:16]     160/640             921,616       node_217   |                             Conv2D_[8]                       
------ --------------------------------- ------------------------ -------------- ------------ -------------- --- -------- ------------------ -------------------------------- 
9      node_220 (Nonlinearity, Relu)     [b:1,h:80,w:80,c:16]                         102,400       node_464   |                             Nonlinearity_[9]                 
------ --------------------------------- ------------------------ -------------- ------------ -------------- --- -------- ------------------ -------------------------------- 
10     node_221 (Conv2D, Conv)           [b:1,h:80,w:80,c:64]     1,088/4,352       6,553,664       node_220   |                             Conv2D_[10]                      
------ --------------------------------- ------------------------ -------------- ------------ -------------- --- -------- ------------------ -------------------------------- 
11     node_467 (Conv2D, Conv)           [b:1,h:80,w:80,c:64]     640/2,560         3,686,464       node_221   |                             Conv2D_[11]                      
------ --------------------------------- ------------------------ -------------- ------------ -------------- --- -------- ------------------ -------------------------------- 
12     node_224 (Nonlinearity, Relu)     [b:1,h:80,w:80,c:64]                         409,600       node_467   |                             Nonlinearity_[12]                
------ --------------------------------- ------------------------ -------------- ------------ -------------- --- -------- ------------------ -------------------------------- 
13     node_225 (Conv2D, Conv)           [b:1,h:80,w:80,c:64]     4,160/16,640     26,214,464       node_224   |                             Conv2D_[13]                      
------ --------------------------------- ------------------------ -------------- ------------ -------------- --- -------- ------------------ -------------------------------- 
14     node_470 (Conv2D, Conv)           [b:1,h:80,w:80,c:64]     640/2,560         3,686,464       node_225   |                             Conv2D_[14]                      
------ --------------------------------- ------------------------ -------------- ------------ -------------- --- -------- ------------------ -------------------------------- 
15     node_228 (Nonlinearity, Relu)     [b:1,h:80,w:80,c:64]                         409,600       node_470   |                             Nonlinearity_[15]                
------ --------------------------------- ------------------------ -------------- ------------ -------------- --- -------- ------------------ -------------------------------- 
16     node_229 (Conv2D, Conv)           [b:1,h:80,w:80,c:64]     4,160/16,640     26,214,464       node_228   |                             Conv2D_[16]                      
------ --------------------------------- ------------------------ -------------- ------------ -------------- --- -------- ------------------ -------------------------------- 
17     node_473 (Conv2D, Conv)           [b:1,h:80,w:80,c:64]     640/2,560         3,686,464       node_229   |                             Conv2D_[17]                      
------ --------------------------------- ------------------------ -------------- ------------ -------------- --- -------- ------------------ -------------------------------- 
18     node_232 (Nonlinearity, Relu)     [b:1,h:80,w:80,c:64]                         409,600       node_473   |                             Nonlinearity_[18]                
------ --------------------------------- ------------------------ -------------- ------------ -------------- --- -------- ------------------ -------------------------------- 
19     node_233 (Pool, MaxPool)          [b:1,h:40,w:40,c:64]                         409,600       node_232   |                             Pool_[19]                        
------ --------------------------------- ------------------------ -------------- ------------ -------------- --- -------- ------------------ -------------------------------- 
20     node_234 (Conv2D, Conv)           [b:1,h:40,w:40,c:64]     4,160/16,640      6,553,664       node_233   |                             Conv2D_[20]                      
------ --------------------------------- ------------------------ -------------- ------------ -------------- --- -------- ------------------ -------------------------------- 
21     node_476 (Conv2D, Conv)           [b:1,h:40,w:40,c:64]     640/2,560           921,664       node_234   |                             Conv2D_[21]                      
------ --------------------------------- ------------------------ -------------- ------------ -------------- --- -------- ------------------ -------------------------------- 
22     node_237 (Nonlinearity, Relu)     [b:1,h:40,w:40,c:64]                         102,400       node_476   |                             Nonlinearity_[22]                
------ --------------------------------- ------------------------ -------------- ------------ -------------- --- -------- ------------------ -------------------------------- 
23     node_238 (Conv2D, Conv)           [b:1,h:40,w:40,c:64]     4,160/16,640      6,553,664       node_237   |                             Conv2D_[23]                      
------ --------------------------------- ------------------------ -------------- ------------ -------------- --- -------- ------------------ -------------------------------- 
24     node_479 (Conv2D, Conv)           [b:1,h:40,w:40,c:64]     640/2,560           921,664       node_238   |                             Conv2D_[24]                      
------ --------------------------------- ------------------------ -------------- ------------ -------------- --- -------- ------------------ -------------------------------- 
25     node_241 (Nonlinearity, Relu)     [b:1,h:40,w:40,c:64]                         102,400       node_479   |                             Nonlinearity_[25]                
------ --------------------------------- ------------------------ -------------- ------------ -------------- --- -------- ------------------ -------------------------------- 
26     node_242 (Pool, MaxPool)          [b:1,h:20,w:20,c:64]                         102,400       node_241   |                             Pool_[26]                        
------ --------------------------------- ------------------------ -------------- ------------ -------------- --- -------- ------------------ -------------------------------- 
27     node_243 (Conv2D, Conv)           [b:1,h:20,w:20,c:64]     4,160/16,640      1,638,464       node_242   |                             Conv2D_[27]                      
------ --------------------------------- ------------------------ -------------- ------------ -------------- --- -------- ------------------ -------------------------------- 
28     node_482 (Conv2D, Conv)           [b:1,h:20,w:20,c:64]     640/2,560           230,464       node_243   |                             Conv2D_[28]                      
------ --------------------------------- ------------------------ -------------- ------------ -------------- --- -------- ------------------ -------------------------------- 
29     node_246 (Nonlinearity, Relu)     [b:1,h:20,w:20,c:64]                          25,600       node_482   |                             Nonlinearity_[29]                
------ --------------------------------- ------------------------ -------------- ------------ -------------- --- -------- ------------------ -------------------------------- 
30     node_247 (Conv2D, Conv)           [b:1,h:20,w:20,c:64]     4,160/16,640      1,638,464       node_246   |                             Conv2D_[30]                      
------ --------------------------------- ------------------------ -------------- ------------ -------------- --- -------- ------------------ -------------------------------- 
31     node_485 (Conv2D, Conv)           [b:1,h:20,w:20,c:64]     640/2,560           230,464       node_247   |                             Conv2D_[31]                      
------ --------------------------------- ------------------------ -------------- ------------ -------------- --- -------- ------------------ -------------------------------- 
32     node_250 (Nonlinearity, Relu)     [b:1,h:20,w:20,c:64]                          25,600       node_485   |                             Nonlinearity_[32]                
------ --------------------------------- ------------------------ -------------- ------------ -------------- --- -------- ------------------ -------------------------------- 
33     node_251 (Pool, MaxPool)          [b:1,h:10,w:10,c:64]                          25,600       node_250   |                             Pool_[33]                        
------ --------------------------------- ------------------------ -------------- ------------ -------------- --- -------- ------------------ -------------------------------- 
34     node_252 (Conv2D, Conv)           [b:1,h:10,w:10,c:64]     4,160/16,640        409,664       node_251   |                             Conv2D_[34]                      
------ --------------------------------- ------------------------ -------------- ------------ -------------- --- -------- ------------------ -------------------------------- 
35     node_488 (Conv2D, Conv)           [b:1,h:10,w:10,c:64]     640/2,560            57,664       node_252   |                             Conv2D_[35]                      
------ --------------------------------- ------------------------ -------------- ------------ -------------- --- -------- ------------------ -------------------------------- 
36     node_255 (Nonlinearity, Relu)     [b:1,h:10,w:10,c:64]                           6,400       node_488   |                             Nonlinearity_[36]                
------ --------------------------------- ------------------------ -------------- ------------ -------------- --- -------- ------------------ -------------------------------- 
37     node_256 (Conv2D, Conv)           [b:1,h:10,w:10,c:64]     4,160/16,640        409,664       node_255   |                             Conv2D_[37]                      
------ --------------------------------- ------------------------ -------------- ------------ -------------- --- -------- ------------------ -------------------------------- 
38     node_491 (Conv2D, Conv)           [b:1,h:10,w:10,c:64]     640/2,560            57,664       node_256   |                             Conv2D_[38]                      
------ --------------------------------- ------------------------ -------------- ------------ -------------- --- -------- ------------------ -------------------------------- 
39     node_259 (Nonlinearity, Relu)     [b:1,h:10,w:10,c:64]                           6,400       node_491   |                             Nonlinearity_[39]                
------ --------------------------------- ------------------------ -------------- ------------ -------------- --- -------- ------------------ -------------------------------- 
40     node_260 (Conv2D, Conv)           [b:1,h:10,w:10,c:64]     4,160/16,640        409,664       node_259   |                             Conv2D_[40]                      
------ --------------------------------- ------------------------ -------------- ------------ -------------- --- -------- ------------------ -------------------------------- 
41     node_494 (Conv2D, Conv)           [b:1,h:10,w:10,c:64]     640/2,560            57,664       node_260   |                             Conv2D_[41]                      
------ --------------------------------- ------------------------ -------------- ------------ -------------- --- -------- ------------------ -------------------------------- 
42     node_263 (Nonlinearity, Relu)     [b:1,h:10,w:10,c:64]                           6,400       node_494   |                             Nonlinearity_[42]                
------ --------------------------------- ------------------------ -------------- ------------ -------------- --- -------- ------------------ -------------------------------- 
43     node_268 (Resize, Resize)         [b:1,h:20,w:20,c:64]                                       node_263   |                             Resize_[56]                      
------ --------------------------------- ------------------------ -------------- ------------ -------------- --- -------- ------------------ -------------------------------- 
44     node_269 (Eltwise, Add)           [b:1,h:20,w:20,c:64]                          25,600       node_250   |                             Eltwise/add_[57]                 
                                                                                                    node_268   | 
------ --------------------------------- ------------------------ -------------- ------------ -------------- --- -------- ------------------ -------------------------------- 
45     node_270 (Conv2D, Conv)           [b:1,h:20,w:20,c:64]     4,160/16,640      1,638,464       node_269   |                             Conv2D_[58]                      
------ --------------------------------- ------------------------ -------------- ------------ -------------- --- -------- ------------------ -------------------------------- 
46     node_497 (Conv2D, Conv)           [b:1,h:20,w:20,c:64]     640/2,560           230,464       node_270   |                             Conv2D_[59]                      
------ --------------------------------- ------------------------ -------------- ------------ -------------- --- -------- ------------------ -------------------------------- 
47     node_273 (Nonlinearity, Relu)     [b:1,h:20,w:20,c:64]                          25,600       node_497   |                             Nonlinearity_[60]                
------ --------------------------------- ------------------------ -------------- ------------ -------------- --- -------- ------------------ -------------------------------- 
48     node_278 (Resize, Resize)         [b:1,h:40,w:40,c:64]                                       node_273   |                             Resize_[74]                      
------ --------------------------------- ------------------------ -------------- ------------ -------------- --- -------- ------------------ -------------------------------- 
49     node_279 (Eltwise, Add)           [b:1,h:40,w:40,c:64]                         102,400       node_241   |                             Eltwise/add_[75]                 
                                                                                                    node_278   | 
------ --------------------------------- ------------------------ -------------- ------------ -------------- --- -------- ------------------ -------------------------------- 
50     node_280 (Conv2D, Conv)           [b:1,h:40,w:40,c:64]     4,160/16,640      6,553,664       node_279   |                             Conv2D_[76]                      
------ --------------------------------- ------------------------ -------------- ------------ -------------- --- -------- ------------------ -------------------------------- 
51     node_500 (Conv2D, Conv)           [b:1,h:40,w:40,c:64]     640/2,560           921,664       node_280   |                             Conv2D_[77]                      
------ --------------------------------- ------------------------ -------------- ------------ -------------- --- -------- ------------------ -------------------------------- 
52     node_283 (Nonlinearity, Relu)     [b:1,h:40,w:40,c:64]                         102,400       node_500   |                             Nonlinearity_[78]                
------ --------------------------------- ------------------------ -------------- ------------ -------------- --- -------- ------------------ -------------------------------- 
53     node_284 (Conv2D, Conv)           [b:1,h:40,w:40,c:64]     4,160/16,640      6,553,664       node_283   |                             Conv2D_[79]                      
------ --------------------------------- ------------------------ -------------- ------------ -------------- --- -------- ------------------ -------------------------------- 
54     node_503 (Conv2D, Conv)           [b:1,h:40,w:40,c:64]     640/2,560           921,664       node_284   |                             Conv2D_[80]                      
------ --------------------------------- ------------------------ -------------- ------------ -------------- --- -------- ------------------ -------------------------------- 
55     node_287 (Nonlinearity, Relu)     [b:1,h:40,w:40,c:64]                         102,400       node_503   |                             Nonlinearity_[81]                
------ --------------------------------- ------------------------ -------------- ------------ -------------- --- -------- ------------------ -------------------------------- 
56     node_288 (Conv2D, Conv)           [b:1,h:20,w:20,c:64]     4,160/16,640      1,638,464       node_273   |                             Conv2D_[61]                      
------ --------------------------------- ------------------------ -------------- ------------ -------------- --- -------- ------------------ -------------------------------- 
57     node_506 (Conv2D, Conv)           [b:1,h:20,w:20,c:64]     640/2,560           230,464       node_288   |                             Conv2D_[62]                      
------ --------------------------------- ------------------------ -------------- ------------ -------------- --- -------- ------------------ -------------------------------- 
58     node_291 (Nonlinearity, Relu)     [b:1,h:20,w:20,c:64]                          25,600       node_506   |                             Nonlinearity_[63]                
------ --------------------------------- ------------------------ -------------- ------------ -------------- --- -------- ------------------ -------------------------------- 
59     node_292 (Conv2D, Conv)           [b:1,h:10,w:10,c:64]     4,160/16,640        409,664       node_263   |                             Conv2D_[43]                      
------ --------------------------------- ------------------------ -------------- ------------ -------------- --- -------- ------------------ -------------------------------- 
60     node_509 (Conv2D, Conv)           [b:1,h:10,w:10,c:64]     640/2,560            57,664       node_292   |                             Conv2D_[44]                      
------ --------------------------------- ------------------------ -------------- ------------ -------------- --- -------- ------------------ -------------------------------- 
61     node_295 (Nonlinearity, Relu)     [b:1,h:10,w:10,c:64]                           6,400       node_509   |                             Nonlinearity_[45]                
------ --------------------------------- ------------------------ -------------- ------------ -------------- --- -------- ------------------ -------------------------------- 
62     node_296 (Conv2D, Conv)           [b:1,h:40,w:40,c:1]      65/260              102,401       node_287   |                             Conv2D_[89]                      
------ --------------------------------- ------------------------ -------------- ------------ -------------- --- -------- ------------------ -------------------------------- 
63     node_297 (Conv2D, Conv)           [b:1,h:40,w:40,c:1]      10/40                14,401       node_296   |                             Conv2D_[90]                      
------ --------------------------------- ------------------------ -------------- ------------ -------------- --- -------- ------------------ -------------------------------- 
64     node_298 (Conv2D, Conv)           [b:1,h:20,w:20,c:1]      65/260               25,601       node_291   |                             Conv2D_[71]                      
------ --------------------------------- ------------------------ -------------- ------------ -------------- --- -------- ------------------ -------------------------------- 
65     node_299 (Conv2D, Conv)           [b:1,h:20,w:20,c:1]      10/40                 3,601       node_298   |                             Conv2D_[72]                      
------ --------------------------------- ------------------------ -------------- ------------ -------------- --- -------- ------------------ -------------------------------- 
66     node_300 (Conv2D, Conv)           [b:1,h:10,w:10,c:1]      65/260                6,401       node_295   |                             Conv2D_[53]                      
------ --------------------------------- ------------------------ -------------- ------------ -------------- --- -------- ------------------ -------------------------------- 
67     node_301 (Conv2D, Conv)           [b:1,h:10,w:10,c:1]      10/40                   901       node_300   |                             Conv2D_[54]                      
------ --------------------------------- ------------------------ -------------- ------------ -------------- --- -------- ------------------ -------------------------------- 
68     node_302 (Conv2D, Conv)           [b:1,h:40,w:40,c:4]      260/1,040           409,604       node_287   |                             Conv2D_[87]                      
------ --------------------------------- ------------------------ -------------- ------------ -------------- --- -------- ------------------ -------------------------------- 
69     node_303 (Conv2D, Conv)           [b:1,h:40,w:40,c:4]      40/160               57,604       node_302   |                             Conv2D_[o][88]                   
------ --------------------------------- ------------------------ -------------- ------------ -------------- --- -------- ------------------ -------------------------------- 
70     node_304 (Conv2D, Conv)           [b:1,h:20,w:20,c:4]      260/1,040           102,404       node_291   |                             Conv2D_[69]                      
------ --------------------------------- ------------------------ -------------- ------------ -------------- --- -------- ------------------ -------------------------------- 
71     node_305 (Conv2D, Conv)           [b:1,h:20,w:20,c:4]      40/160               14,404       node_304   |                             Conv2D_[o][70]                   
------ --------------------------------- ------------------------ -------------- ------------ -------------- --- -------- ------------------ -------------------------------- 
72     node_306 (Conv2D, Conv)           [b:1,h:10,w:10,c:4]      260/1,040            25,604       node_295   |                             Conv2D_[51]                      
------ --------------------------------- ------------------------ -------------- ------------ -------------- --- -------- ------------------ -------------------------------- 
73     node_307 (Conv2D, Conv)           [b:1,h:10,w:10,c:4]      40/160                3,604       node_306   |                             Conv2D_[o][52]                   
------ --------------------------------- ------------------------ -------------- ------------ -------------- --- -------- ------------------ -------------------------------- 
74     node_308 (Conv2D, Conv)           [b:1,h:40,w:40,c:1]      65/260              102,401       node_287   |                             Conv2D_[84]                      
------ --------------------------------- ------------------------ -------------- ------------ -------------- --- -------- ------------------ -------------------------------- 
75     node_309 (Conv2D, Conv)           [b:1,h:40,w:40,c:1]      10/40                14,401       node_308   |                             Conv2D_[85]                      
------ --------------------------------- ------------------------ -------------- ------------ -------------- --- -------- ------------------ -------------------------------- 
76     node_310 (Conv2D, Conv)           [b:1,h:20,w:20,c:1]      65/260               25,601       node_291   |                             Conv2D_[66]                      
------ --------------------------------- ------------------------ -------------- ------------ -------------- --- -------- ------------------ -------------------------------- 
77     node_311 (Conv2D, Conv)           [b:1,h:20,w:20,c:1]      10/40                 3,601       node_310   |                             Conv2D_[67]                      
------ --------------------------------- ------------------------ -------------- ------------ -------------- --- -------- ------------------ -------------------------------- 
78     node_312 (Conv2D, Conv)           [b:1,h:10,w:10,c:1]      65/260                6,401       node_295   |                             Conv2D_[48]                      
------ --------------------------------- ------------------------ -------------- ------------ -------------- --- -------- ------------------ -------------------------------- 
79     node_313 (Conv2D, Conv)           [b:1,h:10,w:10,c:1]      10/40                   901       node_312   |                             Conv2D_[49]                      
------ --------------------------------- ------------------------ -------------- ------------ -------------- --- -------- ------------------ -------------------------------- 
80     node_314 (Conv2D, Conv)           [b:1,h:40,w:40,c:10]     650/2,600         1,024,010       node_287   |                             Conv2D_[82]                      
------ --------------------------------- ------------------------ -------------- ------------ -------------- --- -------- ------------------ -------------------------------- 
81     node_315 (Conv2D, Conv)           [b:1,h:40,w:40,c:10]     100/400             144,010       node_314   |                             Conv2D_[o][83]                   
------ --------------------------------- ------------------------ -------------- ------------ -------------- --- -------- ------------------ -------------------------------- 
82     node_316 (Conv2D, Conv)           [b:1,h:20,w:20,c:10]     650/2,600           256,010       node_291   |                             Conv2D_[64]                      
------ --------------------------------- ------------------------ -------------- ------------ -------------- --- -------- ------------------ -------------------------------- 
83     node_317 (Conv2D, Conv)           [b:1,h:20,w:20,c:10]     100/400              36,010       node_316   |                             Conv2D_[o][65]                   
------ --------------------------------- ------------------------ -------------- ------------ -------------- --- -------- ------------------ -------------------------------- 
84     node_318 (Conv2D, Conv)           [b:1,h:10,w:10,c:10]     650/2,600            64,010       node_295   |                             Conv2D_[46]                      
------ --------------------------------- ------------------------ -------------- ------------ -------------- --- -------- ------------------ -------------------------------- 
85     node_319 (Conv2D, Conv)           [b:1,h:10,w:10,c:10]     100/400               9,010       node_318   |                             Conv2D_[o][47]                   
------ --------------------------------- ------------------------ -------------- ------------ -------------- --- -------- ------------------ -------------------------------- 
86     node_320 (Transpose, Transpose)   [b:1,h:40,w:1,c:40]                              800       node_297   |          -800(-100.0%)      
------ --------------------------------- ------------------------ -------------- ------------ -------------- --- -------- ------------------ -------------------------------- 
87     node_330 (Reshape, Reshape)       [b:1,h:1,c:1600]                                           node_320   |                             
------ --------------------------------- ------------------------ -------------- ------------ -------------- --- -------- ------------------ -------------------------------- 
88     cls_8 (Nonlinearity, Sigmoid)     [b:1,h:1,c:1600]                              16,000       node_330   |                             Nonlinearity_[o][91]             
------ --------------------------------- ------------------------ -------------- ------------ -------------- --- -------- ------------------ -------------------------------- 
89     node_332 (Transpose, Transpose)   [b:1,h:20,w:1,c:20]                              200       node_299   |          -200(-100.0%)      
------ --------------------------------- ------------------------ -------------- ------------ -------------- --- -------- ------------------ -------------------------------- 
90     node_342 (Reshape, Reshape)       [b:1,h:1,c:400]                                            node_332   |                             
------ --------------------------------- ------------------------ -------------- ------------ -------------- --- -------- ------------------ -------------------------------- 
91     cls_16 (Nonlinearity, Sigmoid)    [b:1,h:1,c:400]                                4,000       node_342   |                             Nonlinearity_[o][73]             
------ --------------------------------- ------------------------ -------------- ------------ -------------- --- -------- ------------------ -------------------------------- 
92     node_344 (Transpose, Transpose)   [b:1,h:10,w:1,c:10]                               50       node_301   |          -50(-100.0%)       
------ --------------------------------- ------------------------ -------------- ------------ -------------- --- -------- ------------------ -------------------------------- 
93     node_354 (Reshape, Reshape)       [b:1,h:1,c:100]                                            node_344   |                             
------ --------------------------------- ------------------------ -------------- ------------ -------------- --- -------- ------------------ -------------------------------- 
94     cls_32 (Nonlinearity, Sigmoid)    [b:1,h:1,c:100]                                1,000       node_354   |                             Nonlinearity_[o][55]             
------ --------------------------------- ------------------------ -------------- ------------ -------------- --- -------- ------------------ -------------------------------- 
95     node_356 (Transpose, Transpose)   [b:1,h:40,w:1,c:40]                              800       node_309   |          -800(-100.0%)      
------ --------------------------------- ------------------------ -------------- ------------ -------------- --- -------- ------------------ -------------------------------- 
96     node_366 (Reshape, Reshape)       [b:1,h:1,c:1600]                                           node_356   |                             
------ --------------------------------- ------------------------ -------------- ------------ -------------- --- -------- ------------------ -------------------------------- 
97     obj_8 (Nonlinearity, Sigmoid)     [b:1,h:1,c:1600]                              16,000       node_366   |                             Nonlinearity_[o][86]             
------ --------------------------------- ------------------------ -------------- ------------ -------------- --- -------- ------------------ -------------------------------- 
98     node_368 (Transpose, Transpose)   [b:1,h:20,w:1,c:20]                              200       node_311   |          -200(-100.0%)      
------ --------------------------------- ------------------------ -------------- ------------ -------------- --- -------- ------------------ -------------------------------- 
99     node_378 (Reshape, Reshape)       [b:1,h:1,c:400]                                            node_368   |                             
------ --------------------------------- ------------------------ -------------- ------------ -------------- --- -------- ------------------ -------------------------------- 
100    obj_16 (Nonlinearity, Sigmoid)    [b:1,h:1,c:400]                                4,000       node_378   |                             Nonlinearity_[o][68]             
------ --------------------------------- ------------------------ -------------- ------------ -------------- --- -------- ------------------ -------------------------------- 
101    node_380 (Transpose, Transpose)   [b:1,h:10,w:1,c:10]                               50       node_313   |          -50(-100.0%)       
------ --------------------------------- ------------------------ -------------- ------------ -------------- --- -------- ------------------ -------------------------------- 
102    node_390 (Reshape, Reshape)       [b:1,h:1,c:100]                                            node_380   |                             
------ --------------------------------- ------------------------ -------------- ------------ -------------- --- -------- ------------------ -------------------------------- 
103    obj_32 (Nonlinearity, Sigmoid)    [b:1,h:1,c:100]                                1,000       node_390   |                             Nonlinearity_[o][50]             
------ --------------------------------- ------------------------ -------------- ------------ -------------- --- -------- ------------------ -------------------------------- 
104    node_392 (Transpose, Transpose)   [b:1,h:40,w:4,c:40]                            3,200       node_303   |          -3,200(-100.0%)    
------ --------------------------------- ------------------------ -------------- ------------ -------------- --- -------- ------------------ -------------------------------- 
105    bbox_8 (Reshape, Reshape)         [b:1,h:4,c:1600]                                           node_392   |                             
------ --------------------------------- ------------------------ -------------- ------------ -------------- --- -------- ------------------ -------------------------------- 
106    node_403 (Transpose, Transpose)   [b:1,h:20,w:4,c:20]                              800       node_305   |          -800(-100.0%)      
------ --------------------------------- ------------------------ -------------- ------------ -------------- --- -------- ------------------ -------------------------------- 
107    bbox_16 (Reshape, Reshape)        [b:1,h:4,c:400]                                            node_403   |                             
------ --------------------------------- ------------------------ -------------- ------------ -------------- --- -------- ------------------ -------------------------------- 
108    node_414 (Transpose, Transpose)   [b:1,h:10,w:4,c:10]                              200       node_307   |          -200(-100.0%)      
------ --------------------------------- ------------------------ -------------- ------------ -------------- --- -------- ------------------ -------------------------------- 
109    bbox_32 (Reshape, Reshape)        [b:1,h:4,c:100]                                            node_414   |                             
------ --------------------------------- ------------------------ -------------- ------------ -------------- --- -------- ------------------ -------------------------------- 
110    node_425 (Transpose, Transpose)   [b:1,h:40,w:10,c:40]                           8,000       node_315   |          -8,000(-100.0%)    
------ --------------------------------- ------------------------ -------------- ------------ -------------- --- -------- ------------------ -------------------------------- 
111    kps_8 (Reshape, Reshape)          [b:1,h:10,c:1600]                                          node_425   |                             
------ --------------------------------- ------------------------ -------------- ------------ -------------- --- -------- ------------------ -------------------------------- 
112    node_436 (Transpose, Transpose)   [b:1,h:20,w:10,c:20]                           2,000       node_317   |          -2,000(-100.0%)    
------ --------------------------------- ------------------------ -------------- ------------ -------------- --- -------- ------------------ -------------------------------- 
113    kps_16 (Reshape, Reshape)         [b:1,h:10,c:400]                                           node_436   |                             
------ --------------------------------- ------------------------ -------------- ------------ -------------- --- -------- ------------------ -------------------------------- 
114    node_447 (Transpose, Transpose)   [b:1,h:10,w:10,c:10]                             500       node_319   |          -500(-100.0%)      
------ --------------------------------- ------------------------ -------------- ------------ -------------- --- -------- ------------------ -------------------------------- 
115    kps_32 (Reshape, Reshape)         [b:1,h:10,c:100]                                           node_447   |                             
------ --------------------------------- ------------------------ -------------- ------------ -------------- --- -------- ------------------ -------------------------------- 
model/c-model: macc=139,422,496/139,559,296 +136,800(+0.1%) weights=295,360/295,360  activations=--/2,517,164 io=--/0



Generated C-graph summary
------------------------------------------------------------------------------------------------------------------------
model name            : yunetn_320
c-name                : network
c-node #              : 92
c-array #             : 247
activations size      : 2517164 (2 segments)
weights size          : 295360 (1 segment)
macc                  : 139559296
inputs                : ['input_output']
outputs               : ['cls_8_output', 'cls_16_output', 'cls_32_output', 'obj_8_output', 'obj_16_output', 'obj_32_output', 'node_303_output', 'node_305_output', 'node_307_output', 'node_315_output', 'node_317_output', 'node_319_output']

C-Arrays (247)
------ ------------------------ ---------------- ---------------------------- ------------- --------- 
c_id   name (*_array)           item/size        domain/mem-pool              c-type        comment   
------ ------------------------ ---------------- ---------------------------- ------------- --------- 
0      cls_16_output            400/1600         activations/DTCMRAM          float         /output   
1      cls_32_output            100/400          activations/DTCMRAM          float         /output   
2      cls_8_output             1600/6400        activations/DTCMRAM          float         /output   
3      input_Transpose_output   307200/1228800   activations/External SDRAM   float                   
4      input_output             307200/1228800   activations/External SDRAM   float         /input    
5      node_211_output          409600/1638400   activations/External SDRAM   float                   
6      node_212_bias            16/64            weights/weights              const float             
7      node_212_output          409600/1638400   activations/External SDRAM   float                   
8      node_212_scratch0        16/64            activations/DTCMRAM          float                   
9      node_212_weights         256/1024         weights/weights              const float             
10     node_215_output          409600/1638400   activations/External SDRAM   float                   
11     node_216_output          102400/409600    activations/External SDRAM   float                   
12     node_217_bias            16/64            weights/weights              const float             
13     node_217_output          102400/409600    activations/External SDRAM   float                   
14     node_217_scratch0        16/64            activations/DTCMRAM          float                   
15     node_217_weights         256/1024         weights/weights              const float             
16     node_220_output          102400/409600    activations/External SDRAM   float                   
17     node_221_bias            64/256           weights/weights              const float             
18     node_221_output          409600/1638400   activations/External SDRAM   float                   
19     node_221_scratch0        16/64            activations/DTCMRAM          float                   
20     node_221_weights         1024/4096        weights/weights              const float             
21     node_224_output          409600/1638400   activations/External SDRAM   float                   
22     node_225_bias            64/256           weights/weights              const float             
23     node_225_output          409600/1638400   activations/External SDRAM   float                   
24     node_225_scratch0        64/256           activations/DTCMRAM          float                   
25     node_225_weights         4096/16384       weights/weights              const float             
26     node_228_output          409600/1638400   activations/External SDRAM   float                   
27     node_229_bias            64/256           weights/weights              const float             
28     node_229_output          409600/1638400   activations/External SDRAM   float                   
29     node_229_scratch0        64/256           activations/DTCMRAM          float                   
30     node_229_weights         4096/16384       weights/weights              const float             
31     node_232_output          409600/1638400   activations/External SDRAM   float                   
32     node_233_output          102400/409600    activations/External SDRAM   float                   
33     node_234_bias            64/256           weights/weights              const float             
34     node_234_output          102400/409600    activations/External SDRAM   float                   
35     node_234_scratch0        64/256           activations/DTCMRAM          float                   
36     node_234_weights         4096/16384       weights/weights              const float             
37     node_237_output          102400/409600    activations/External SDRAM   float                   
38     node_238_bias            64/256           weights/weights              const float             
39     node_238_output          102400/409600    activations/External SDRAM   float                   
40     node_238_scratch0        64/256           activations/DTCMRAM          float                   
41     node_238_weights         4096/16384       weights/weights              const float             
42     node_241_output          102400/409600    activations/External SDRAM   float                   
43     node_242_output          25600/102400     activations/External SDRAM   float                   
44     node_243_bias            64/256           weights/weights              const float             
45     node_243_output          25600/102400     activations/External SDRAM   float                   
46     node_243_scratch0        64/256           activations/DTCMRAM          float                   
47     node_243_weights         4096/16384       weights/weights              const float             
48     node_246_output          25600/102400     activations/External SDRAM   float                   
49     node_247_bias            64/256           weights/weights              const float             
50     node_247_output          25600/102400     activations/External SDRAM   float                   
51     node_247_scratch0        64/256           activations/DTCMRAM          float                   
52     node_247_weights         4096/16384       weights/weights              const float             
53     node_250_output          25600/102400     activations/External SDRAM   float                   
54     node_251_output          6400/25600       activations/DTCMRAM          float                   
55     node_252_bias            64/256           weights/weights              const float             
56     node_252_output          6400/25600       activations/DTCMRAM          float                   
57     node_252_scratch0        64/256           activations/DTCMRAM          float                   
58     node_252_weights         4096/16384       weights/weights              const float             
59     node_255_output          6400/25600       activations/DTCMRAM          float                   
60     node_256_bias            64/256           weights/weights              const float             
61     node_256_output          6400/25600       activations/DTCMRAM          float                   
62     node_256_scratch0        64/256           activations/DTCMRAM          float                   
63     node_256_weights         4096/16384       weights/weights              const float             
64     node_259_output          6400/25600       activations/DTCMRAM          float                   
65     node_260_bias            64/256           weights/weights              const float             
66     node_260_output          6400/25600       activations/DTCMRAM          float                   
67     node_260_scratch0        64/256           activations/DTCMRAM          float                   
68     node_260_weights         4096/16384       weights/weights              const float             
69     node_263_output          6400/25600       activations/DTCMRAM          float                   
70     node_268_output          25600/102400     activations/External SDRAM   float                   
71     node_269_output          25600/102400     activations/External SDRAM   float                   
72     node_270_bias            64/256           weights/weights              const float             
73     node_270_output          25600/102400     activations/External SDRAM   float                   
74     node_270_scratch0        64/256           activations/DTCMRAM          float                   
75     node_270_weights         4096/16384       weights/weights              const float             
76     node_273_output          25600/102400     activations/External SDRAM   float                   
77     node_278_output          102400/409600    activations/External SDRAM   float                   
78     node_279_output          102400/409600    activations/External SDRAM   float                   
79     node_280_bias            64/256           weights/weights              const float             
80     node_280_output          102400/409600    activations/External SDRAM   float                   
81     node_280_scratch0        64/256           activations/DTCMRAM          float                   
82     node_280_weights         4096/16384       weights/weights              const float             
83     node_283_output          102400/409600    activations/External SDRAM   float                   
84     node_284_bias            64/256           weights/weights              const float             
85     node_284_output          102400/409600    activations/External SDRAM   float                   
86     node_284_scratch0        64/256           activations/DTCMRAM          float                   
87     node_284_weights         4096/16384       weights/weights              const float             
88     node_287_output          102400/409600    activations/External SDRAM   float                   
89     node_288_bias            64/256           weights/weights              const float             
90     node_288_output          25600/102400     activations/External SDRAM   float                   
91     node_288_scratch0        64/256           activations/DTCMRAM          float                   
92     node_288_weights         4096/16384       weights/weights              const float             
93     node_291_output          25600/102400     activations/External SDRAM   float                   
94     node_292_bias            64/256           weights/weights              const float             
95     node_292_output          6400/25600       activations/DTCMRAM          float                   
96     node_292_scratch0        64/256           activations/DTCMRAM          float                   
97     node_292_weights         4096/16384       weights/weights              const float             
98     node_295_output          6400/25600       activations/DTCMRAM          float                   
99     node_296_bias            1/4              weights/weights              const float             
100    node_296_output          1600/6400        activations/DTCMRAM          float                   
101    node_296_scratch0        64/256           activations/DTCMRAM          float                   
102    node_296_weights         64/256           weights/weights              const float             
103    node_297_bias            1/4              weights/weights              const float             
104    node_297_output          1600/6400        activations/DTCMRAM          float                   
105    node_297_scratch0        9/36             activations/DTCMRAM          float                   
106    node_297_weights         9/36             weights/weights              const float             
107    node_298_bias            1/4              weights/weights              const float             
108    node_298_output          400/1600         activations/DTCMRAM          float                   
109    node_298_scratch0        64/256           activations/DTCMRAM          float                   
110    node_298_weights         64/256           weights/weights              const float             
111    node_299_bias            1/4              weights/weights              const float             
112    node_299_output          400/1600         activations/DTCMRAM          float                   
113    node_299_scratch0        9/36             activations/DTCMRAM          float                   
114    node_299_weights         9/36             weights/weights              const float             
115    node_300_bias            1/4              weights/weights              const float             
116    node_300_output          100/400          activations/DTCMRAM          float                   
117    node_300_scratch0        64/256           activations/DTCMRAM          float                   
118    node_300_weights         64/256           weights/weights              const float             
119    node_301_bias            1/4              weights/weights              const float             
120    node_301_output          100/400          activations/DTCMRAM          float                   
121    node_301_scratch0        9/36             activations/DTCMRAM          float                   
122    node_301_weights         9/36             weights/weights              const float             
123    node_302_bias            4/16             weights/weights              const float             
124    node_302_output          6400/25600       activations/External SDRAM   float                   
125    node_302_scratch0        64/256           activations/DTCMRAM          float                   
126    node_302_weights         256/1024         weights/weights              const float             
127    node_303_bias            4/16             weights/weights              const float             
128    node_303_output          6400/25600       activations/External SDRAM   float         /output   
129    node_303_weights         36/144           weights/weights              const float             
130    node_304_bias            4/16             weights/weights              const float             
131    node_304_output          1600/6400        activations/DTCMRAM          float                   
132    node_304_scratch0        64/256           activations/DTCMRAM          float                   
133    node_304_weights         256/1024         weights/weights              const float             
134    node_305_bias            4/16             weights/weights              const float             
135    node_305_output          1600/6400        activations/DTCMRAM          float         /output   
136    node_305_weights         36/144           weights/weights              const float             
137    node_306_bias            4/16             weights/weights              const float             
138    node_306_output          400/1600         activations/DTCMRAM          float                   
139    node_306_scratch0        64/256           activations/DTCMRAM          float                   
140    node_306_weights         256/1024         weights/weights              const float             
141    node_307_bias            4/16             weights/weights              const float             
142    node_307_output          400/1600         activations/DTCMRAM          float         /output   
143    node_307_weights         36/144           weights/weights              const float             
144    node_308_bias            1/4              weights/weights              const float             
145    node_308_output          1600/6400        activations/DTCMRAM          float                   
146    node_308_scratch0        64/256           activations/DTCMRAM          float                   
147    node_308_weights         64/256           weights/weights              const float             
148    node_309_bias            1/4              weights/weights              const float             
149    node_309_output          1600/6400        activations/DTCMRAM          float                   
150    node_309_scratch0        9/36             activations/DTCMRAM          float                   
151    node_309_weights         9/36             weights/weights              const float             
152    node_310_bias            1/4              weights/weights              const float             
153    node_310_output          400/1600         activations/DTCMRAM          float                   
154    node_310_scratch0        64/256           activations/DTCMRAM          float                   
155    node_310_weights         64/256           weights/weights              const float             
156    node_311_bias            1/4              weights/weights              const float             
157    node_311_output          400/1600         activations/DTCMRAM          float                   
158    node_311_scratch0        9/36             activations/DTCMRAM          float                   
159    node_311_weights         9/36             weights/weights              const float             
160    node_312_bias            1/4              weights/weights              const float             
161    node_312_output          100/400          activations/DTCMRAM          float                   
162    node_312_scratch0        64/256           activations/DTCMRAM          float                   
163    node_312_weights         64/256           weights/weights              const float             
164    node_313_bias            1/4              weights/weights              const float             
165    node_313_output          100/400          activations/DTCMRAM          float                   
166    node_313_scratch0        9/36             activations/DTCMRAM          float                   
167    node_313_weights         9/36             weights/weights              const float             
168    node_314_bias            10/40            weights/weights              const float             
169    node_314_output          16000/64000      activations/External SDRAM   float                   
170    node_314_scratch0        64/256           activations/DTCMRAM          float                   
171    node_314_weights         640/2560         weights/weights              const float             
172    node_315_bias            10/40            weights/weights              const float             
173    node_315_output          16000/64000      activations/External SDRAM   float         /output   
174    node_315_weights         90/360           weights/weights              const float             
175    node_316_bias            10/40            weights/weights              const float             
176    node_316_output          4000/16000       activations/DTCMRAM          float                   
177    node_316_scratch0        64/256           activations/DTCMRAM          float                   
178    node_316_weights         640/2560         weights/weights              const float             
179    node_317_bias            10/40            weights/weights              const float             
180    node_317_output          4000/16000       activations/DTCMRAM          float         /output   
181    node_317_weights         90/360           weights/weights              const float             
182    node_318_bias            10/40            weights/weights              const float             
183    node_318_output          1000/4000        activations/DTCMRAM          float                   
184    node_318_scratch0        64/256           activations/DTCMRAM          float                   
185    node_318_weights         640/2560         weights/weights              const float             
186    node_319_bias            10/40            weights/weights              const float             
187    node_319_output          1000/4000        activations/DTCMRAM          float         /output   
188    node_319_weights         90/360           weights/weights              const float             
189    node_458_bias            16/64            weights/weights              const float             
190    node_458_output          409600/1638400   activations/External SDRAM   float                   
191    node_458_scratch0        27/108           activations/DTCMRAM          float                   
192    node_458_weights         432/1728         weights/weights              const float             
193    node_461_bias            16/64            weights/weights              const float             
194    node_461_output          409600/1638400   activations/External SDRAM   float                   
195    node_461_weights         144/576          weights/weights              const float             
196    node_464_bias            16/64            weights/weights              const float             
197    node_464_output          102400/409600    activations/External SDRAM   float                   
198    node_464_weights         144/576          weights/weights              const float             
199    node_467_bias            64/256           weights/weights              const float             
200    node_467_output          409600/1638400   activations/External SDRAM   float                   
201    node_467_weights         576/2304         weights/weights              const float             
202    node_470_bias            64/256           weights/weights              const float             
203    node_470_output          409600/1638400   activations/External SDRAM   float                   
204    node_470_weights         576/2304         weights/weights              const float             
205    node_473_bias            64/256           weights/weights              const float             
206    node_473_output          409600/1638400   activations/External SDRAM   float                   
207    node_473_weights         576/2304         weights/weights              const float             
208    node_476_bias            64/256           weights/weights              const float             
209    node_476_output          102400/409600    activations/External SDRAM   float                   
210    node_476_weights         576/2304         weights/weights              const float             
211    node_479_bias            64/256           weights/weights              const float             
212    node_479_output          102400/409600    activations/External SDRAM   float                   
213    node_479_weights         576/2304         weights/weights              const float             
214    node_482_bias            64/256           weights/weights              const float             
215    node_482_output          25600/102400     activations/External SDRAM   float                   
216    node_482_weights         576/2304         weights/weights              const float             
217    node_485_bias            64/256           weights/weights              const float             
218    node_485_output          25600/102400     activations/External SDRAM   float                   
219    node_485_weights         576/2304         weights/weights              const float             
220    node_488_bias            64/256           weights/weights              const float             
221    node_488_output          6400/25600       activations/DTCMRAM          float                   
222    node_488_weights         576/2304         weights/weights              const float             
223    node_491_bias            64/256           weights/weights              const float             
224    node_491_output          6400/25600       activations/DTCMRAM          float                   
225    node_491_weights         576/2304         weights/weights              const float             
226    node_494_bias            64/256           weights/weights              const float             
227    node_494_output          6400/25600       activations/DTCMRAM          float                   
228    node_494_weights         576/2304         weights/weights              const float             
229    node_497_bias            64/256           weights/weights              const float             
230    node_497_output          25600/102400     activations/External SDRAM   float                   
231    node_497_weights         576/2304         weights/weights              const float             
232    node_500_bias            64/256           weights/weights              const float             
233    node_500_output          102400/409600    activations/External SDRAM   float                   
234    node_500_weights         576/2304         weights/weights              const float             
235    node_503_bias            64/256           weights/weights              const float             
236    node_503_output          102400/409600    activations/External SDRAM   float                   
237    node_503_weights         576/2304         weights/weights              const float             
238    node_506_bias            64/256           weights/weights              const float             
239    node_506_output          25600/102400     activations/External SDRAM   float                   
240    node_506_weights         576/2304         weights/weights              const float             
241    node_509_bias            64/256           weights/weights              const float             
242    node_509_output          6400/25600       activations/External SDRAM   float                   
243    node_509_weights         576/2304         weights/weights              const float             
244    obj_16_output            400/1600         activations/DTCMRAM          float         /output   
245    obj_32_output            100/400          activations/DTCMRAM          float         /output   
246    obj_8_output             1600/6400        activations/DTCMRAM          float         /output   
------ ------------------------ ---------------- ---------------------------- ------------- --------- 

C-Layers (92)
------ ----------------- ----- --------------- ---------- ------- --------------------------- ------------------------- 
c_id   name (*_layer)    id    layer_type      macc       rom     tensors                     shape (array id)          
------ ----------------- ----- --------------- ---------- ------- --------------------------- ------------------------- 
0      input_Transpose   2     Transpose       153600     0       I: input_output             f32(1x3x320x320) (4)      
                                                                  O: input_Transpose_output   f32(1x320x320x3) (3)      
------ ----------------- ----- --------------- ---------- ------- --------------------------- ------------------------- 
1      node_458          1     Conv2D          11059216   1792    I: input_Transpose_output   f32(1x320x320x3) (3)      
                                                                  S: node_458_scratch0                                  
                                                                  W: node_458_weights         f32(16x3x3x3) (192)       
                                                                  W: node_458_bias            f32(16) (189)             
                                                                  O: node_458_output          f32(1x160x160x16) (190)   
------ ----------------- ----- --------------- ---------- ------- --------------------------- ------------------------- 
2      node_211          2     Nonlinearity    409600     0       I: node_458_output          f32(1x160x160x16) (190)   
                                                                  O: node_211_output          f32(1x160x160x16) (5)     
------ ----------------- ----- --------------- ---------- ------- --------------------------- ------------------------- 
3      node_212          3     Conv2D          6553616    1088    I: node_211_output          f32(1x160x160x16) (5)     
                                                                  S: node_212_scratch0                                  
                                                                  W: node_212_weights         f32(16x1x1x16) (9)        
                                                                  W: node_212_bias            f32(16) (6)               
                                                                  O: node_212_output          f32(1x160x160x16) (7)     
------ ----------------- ----- --------------- ---------- ------- --------------------------- ------------------------- 
4      node_461          4     Conv2D          3686416    640     I: node_212_output          f32(1x160x160x16) (7)     
                                                                  W: node_461_weights         f32(16x3x3x1) (195)       
                                                                  W: node_461_bias            f32(16) (193)             
                                                                  O: node_461_output          f32(1x160x160x16) (194)   
------ ----------------- ----- --------------- ---------- ------- --------------------------- ------------------------- 
5      node_215          5     Nonlinearity    409600     0       I: node_461_output          f32(1x160x160x16) (194)   
                                                                  O: node_215_output          f32(1x160x160x16) (10)    
------ ----------------- ----- --------------- ---------- ------- --------------------------- ------------------------- 
6      node_216          6     Pool            409600     0       I: node_215_output          f32(1x160x160x16) (10)    
                                                                  O: node_216_output          f32(1x80x80x16) (11)      
------ ----------------- ----- --------------- ---------- ------- --------------------------- ------------------------- 
7      node_217          7     Conv2D          1638416    1088    I: node_216_output          f32(1x80x80x16) (11)      
                                                                  S: node_217_scratch0                                  
                                                                  W: node_217_weights         f32(16x1x1x16) (15)       
                                                                  W: node_217_bias            f32(16) (12)              
                                                                  O: node_217_output          f32(1x80x80x16) (13)      
------ ----------------- ----- --------------- ---------- ------- --------------------------- ------------------------- 
8      node_464          8     Conv2D          921616     640     I: node_217_output          f32(1x80x80x16) (13)      
                                                                  W: node_464_weights         f32(16x3x3x1) (198)       
                                                                  W: node_464_bias            f32(16) (196)             
                                                                  O: node_464_output          f32(1x80x80x16) (197)     
------ ----------------- ----- --------------- ---------- ------- --------------------------- ------------------------- 
9      node_220          9     Nonlinearity    102400     0       I: node_464_output          f32(1x80x80x16) (197)     
                                                                  O: node_220_output          f32(1x80x80x16) (16)      
------ ----------------- ----- --------------- ---------- ------- --------------------------- ------------------------- 
10     node_221          10    Conv2D          6553664    4352    I: node_220_output          f32(1x80x80x16) (16)      
                                                                  S: node_221_scratch0                                  
                                                                  W: node_221_weights         f32(64x1x1x16) (20)       
                                                                  W: node_221_bias            f32(64) (17)              
                                                                  O: node_221_output          f32(1x80x80x64) (18)      
------ ----------------- ----- --------------- ---------- ------- --------------------------- ------------------------- 
11     node_467          11    Conv2D          3686464    2560    I: node_221_output          f32(1x80x80x64) (18)      
                                                                  W: node_467_weights         f32(64x3x3x1) (201)       
                                                                  W: node_467_bias            f32(64) (199)             
                                                                  O: node_467_output          f32(1x80x80x64) (200)     
------ ----------------- ----- --------------- ---------- ------- --------------------------- ------------------------- 
12     node_224          12    Nonlinearity    409600     0       I: node_467_output          f32(1x80x80x64) (200)     
                                                                  O: node_224_output          f32(1x80x80x64) (21)      
------ ----------------- ----- --------------- ---------- ------- --------------------------- ------------------------- 
13     node_225          13    Conv2D          26214464   16640   I: node_224_output          f32(1x80x80x64) (21)      
                                                                  S: node_225_scratch0                                  
                                                                  W: node_225_weights         f32(64x1x1x64) (25)       
                                                                  W: node_225_bias            f32(64) (22)              
                                                                  O: node_225_output          f32(1x80x80x64) (23)      
------ ----------------- ----- --------------- ---------- ------- --------------------------- ------------------------- 
14     node_470          14    Conv2D          3686464    2560    I: node_225_output          f32(1x80x80x64) (23)      
                                                                  W: node_470_weights         f32(64x3x3x1) (204)       
                                                                  W: node_470_bias            f32(64) (202)             
                                                                  O: node_470_output          f32(1x80x80x64) (203)     
------ ----------------- ----- --------------- ---------- ------- --------------------------- ------------------------- 
15     node_228          15    Nonlinearity    409600     0       I: node_470_output          f32(1x80x80x64) (203)     
                                                                  O: node_228_output          f32(1x80x80x64) (26)      
------ ----------------- ----- --------------- ---------- ------- --------------------------- ------------------------- 
16     node_229          16    Conv2D          26214464   16640   I: node_228_output          f32(1x80x80x64) (26)      
                                                                  S: node_229_scratch0                                  
                                                                  W: node_229_weights         f32(64x1x1x64) (30)       
                                                                  W: node_229_bias            f32(64) (27)              
                                                                  O: node_229_output          f32(1x80x80x64) (28)      
------ ----------------- ----- --------------- ---------- ------- --------------------------- ------------------------- 
17     node_473          17    Conv2D          3686464    2560    I: node_229_output          f32(1x80x80x64) (28)      
                                                                  W: node_473_weights         f32(64x3x3x1) (207)       
                                                                  W: node_473_bias            f32(64) (205)             
                                                                  O: node_473_output          f32(1x80x80x64) (206)     
------ ----------------- ----- --------------- ---------- ------- --------------------------- ------------------------- 
18     node_232          18    Nonlinearity    409600     0       I: node_473_output          f32(1x80x80x64) (206)     
                                                                  O: node_232_output          f32(1x80x80x64) (31)      
------ ----------------- ----- --------------- ---------- ------- --------------------------- ------------------------- 
19     node_233          19    Pool            409600     0       I: node_232_output          f32(1x80x80x64) (31)      
                                                                  O: node_233_output          f32(1x40x40x64) (32)      
------ ----------------- ----- --------------- ---------- ------- --------------------------- ------------------------- 
20     node_234          20    Conv2D          6553664    16640   I: node_233_output          f32(1x40x40x64) (32)      
                                                                  S: node_234_scratch0                                  
                                                                  W: node_234_weights         f32(64x1x1x64) (36)       
                                                                  W: node_234_bias            f32(64) (33)              
                                                                  O: node_234_output          f32(1x40x40x64) (34)      
------ ----------------- ----- --------------- ---------- ------- --------------------------- ------------------------- 
21     node_476          21    Conv2D          921664     2560    I: node_234_output          f32(1x40x40x64) (34)      
                                                                  W: node_476_weights         f32(64x3x3x1) (210)       
                                                                  W: node_476_bias            f32(64) (208)             
                                                                  O: node_476_output          f32(1x40x40x64) (209)     
------ ----------------- ----- --------------- ---------- ------- --------------------------- ------------------------- 
22     node_237          22    Nonlinearity    102400     0       I: node_476_output          f32(1x40x40x64) (209)     
                                                                  O: node_237_output          f32(1x40x40x64) (37)      
------ ----------------- ----- --------------- ---------- ------- --------------------------- ------------------------- 
23     node_238          23    Conv2D          6553664    16640   I: node_237_output          f32(1x40x40x64) (37)      
                                                                  S: node_238_scratch0                                  
                                                                  W: node_238_weights         f32(64x1x1x64) (41)       
                                                                  W: node_238_bias            f32(64) (38)              
                                                                  O: node_238_output          f32(1x40x40x64) (39)      
------ ----------------- ----- --------------- ---------- ------- --------------------------- ------------------------- 
24     node_479          24    Conv2D          921664     2560    I: node_238_output          f32(1x40x40x64) (39)      
                                                                  W: node_479_weights         f32(64x3x3x1) (213)       
                                                                  W: node_479_bias            f32(64) (211)             
                                                                  O: node_479_output          f32(1x40x40x64) (212)     
------ ----------------- ----- --------------- ---------- ------- --------------------------- ------------------------- 
25     node_241          25    Nonlinearity    102400     0       I: node_479_output          f32(1x40x40x64) (212)     
                                                                  O: node_241_output          f32(1x40x40x64) (42)      
------ ----------------- ----- --------------- ---------- ------- --------------------------- ------------------------- 
26     node_242          26    Pool            102400     0       I: node_241_output          f32(1x40x40x64) (42)      
                                                                  O: node_242_output          f32(1x20x20x64) (43)      
------ ----------------- ----- --------------- ---------- ------- --------------------------- ------------------------- 
27     node_243          27    Conv2D          1638464    16640   I: node_242_output          f32(1x20x20x64) (43)      
                                                                  S: node_243_scratch0                                  
                                                                  W: node_243_weights         f32(64x1x1x64) (47)       
                                                                  W: node_243_bias            f32(64) (44)              
                                                                  O: node_243_output          f32(1x20x20x64) (45)      
------ ----------------- ----- --------------- ---------- ------- --------------------------- ------------------------- 
28     node_482          28    Conv2D          230464     2560    I: node_243_output          f32(1x20x20x64) (45)      
                                                                  W: node_482_weights         f32(64x3x3x1) (216)       
                                                                  W: node_482_bias            f32(64) (214)             
                                                                  O: node_482_output          f32(1x20x20x64) (215)     
------ ----------------- ----- --------------- ---------- ------- --------------------------- ------------------------- 
29     node_246          29    Nonlinearity    25600      0       I: node_482_output          f32(1x20x20x64) (215)     
                                                                  O: node_246_output          f32(1x20x20x64) (48)      
------ ----------------- ----- --------------- ---------- ------- --------------------------- ------------------------- 
30     node_247          30    Conv2D          1638464    16640   I: node_246_output          f32(1x20x20x64) (48)      
                                                                  S: node_247_scratch0                                  
                                                                  W: node_247_weights         f32(64x1x1x64) (52)       
                                                                  W: node_247_bias            f32(64) (49)              
                                                                  O: node_247_output          f32(1x20x20x64) (50)      
------ ----------------- ----- --------------- ---------- ------- --------------------------- ------------------------- 
31     node_485          31    Conv2D          230464     2560    I: node_247_output          f32(1x20x20x64) (50)      
                                                                  W: node_485_weights         f32(64x3x3x1) (219)       
                                                                  W: node_485_bias            f32(64) (217)             
                                                                  O: node_485_output          f32(1x20x20x64) (218)     
------ ----------------- ----- --------------- ---------- ------- --------------------------- ------------------------- 
32     node_250          32    Nonlinearity    25600      0       I: node_485_output          f32(1x20x20x64) (218)     
                                                                  O: node_250_output          f32(1x20x20x64) (53)      
------ ----------------- ----- --------------- ---------- ------- --------------------------- ------------------------- 
33     node_251          33    Pool            25600      0       I: node_250_output          f32(1x20x20x64) (53)      
                                                                  O: node_251_output          f32(1x10x10x64) (54)      
------ ----------------- ----- --------------- ---------- ------- --------------------------- ------------------------- 
34     node_252          34    Conv2D          409664     16640   I: node_251_output          f32(1x10x10x64) (54)      
                                                                  S: node_252_scratch0                                  
                                                                  W: node_252_weights         f32(64x1x1x64) (58)       
                                                                  W: node_252_bias            f32(64) (55)              
                                                                  O: node_252_output          f32(1x10x10x64) (56)      
------ ----------------- ----- --------------- ---------- ------- --------------------------- ------------------------- 
35     node_488          35    Conv2D          57664      2560    I: node_252_output          f32(1x10x10x64) (56)      
                                                                  W: node_488_weights         f32(64x3x3x1) (222)       
                                                                  W: node_488_bias            f32(64) (220)             
                                                                  O: node_488_output          f32(1x10x10x64) (221)     
------ ----------------- ----- --------------- ---------- ------- --------------------------- ------------------------- 
36     node_255          36    Nonlinearity    6400       0       I: node_488_output          f32(1x10x10x64) (221)     
                                                                  O: node_255_output          f32(1x10x10x64) (59)      
------ ----------------- ----- --------------- ---------- ------- --------------------------- ------------------------- 
37     node_256          37    Conv2D          409664     16640   I: node_255_output          f32(1x10x10x64) (59)      
                                                                  S: node_256_scratch0                                  
                                                                  W: node_256_weights         f32(64x1x1x64) (63)       
                                                                  W: node_256_bias            f32(64) (60)              
                                                                  O: node_256_output          f32(1x10x10x64) (61)      
------ ----------------- ----- --------------- ---------- ------- --------------------------- ------------------------- 
38     node_491          38    Conv2D          57664      2560    I: node_256_output          f32(1x10x10x64) (61)      
                                                                  W: node_491_weights         f32(64x3x3x1) (225)       
                                                                  W: node_491_bias            f32(64) (223)             
                                                                  O: node_491_output          f32(1x10x10x64) (224)     
------ ----------------- ----- --------------- ---------- ------- --------------------------- ------------------------- 
39     node_259          39    Nonlinearity    6400       0       I: node_491_output          f32(1x10x10x64) (224)     
                                                                  O: node_259_output          f32(1x10x10x64) (64)      
------ ----------------- ----- --------------- ---------- ------- --------------------------- ------------------------- 
40     node_260          40    Conv2D          409664     16640   I: node_259_output          f32(1x10x10x64) (64)      
                                                                  S: node_260_scratch0                                  
                                                                  W: node_260_weights         f32(64x1x1x64) (68)       
                                                                  W: node_260_bias            f32(64) (65)              
                                                                  O: node_260_output          f32(1x10x10x64) (66)      
------ ----------------- ----- --------------- ---------- ------- --------------------------- ------------------------- 
41     node_494          41    Conv2D          57664      2560    I: node_260_output          f32(1x10x10x64) (66)      
                                                                  W: node_494_weights         f32(64x3x3x1) (228)       
                                                                  W: node_494_bias            f32(64) (226)             
                                                                  O: node_494_output          f32(1x10x10x64) (227)     
------ ----------------- ----- --------------- ---------- ------- --------------------------- ------------------------- 
42     node_263          42    Nonlinearity    6400       0       I: node_494_output          f32(1x10x10x64) (227)     
                                                                  O: node_263_output          f32(1x10x10x64) (69)      
------ ----------------- ----- --------------- ---------- ------- --------------------------- ------------------------- 
43     node_292          59    Conv2D          409664     16640   I: node_263_output          f32(1x10x10x64) (69)      
                                                                  S: node_292_scratch0                                  
                                                                  W: node_292_weights         f32(64x1x1x64) (97)       
                                                                  W: node_292_bias            f32(64) (94)              
                                                                  O: node_292_output          f32(1x10x10x64) (95)      
------ ----------------- ----- --------------- ---------- ------- --------------------------- ------------------------- 
44     node_509          60    Conv2D          57664      2560    I: node_292_output          f32(1x10x10x64) (95)      
                                                                  W: node_509_weights         f32(64x3x3x1) (243)       
                                                                  W: node_509_bias            f32(64) (241)             
                                                                  O: node_509_output          f32(1x10x10x64) (242)     
------ ----------------- ----- --------------- ---------- ------- --------------------------- ------------------------- 
45     node_295          61    Nonlinearity    6400       0       I: node_509_output          f32(1x10x10x64) (242)     
                                                                  O: node_295_output          f32(1x10x10x64) (98)      
------ ----------------- ----- --------------- ---------- ------- --------------------------- ------------------------- 
46     node_318          84    Conv2D          64010      2600    I: node_295_output          f32(1x10x10x64) (98)      
                                                                  S: node_318_scratch0                                  
                                                                  W: node_318_weights         f32(10x1x1x64) (185)      
                                                                  W: node_318_bias            f32(10) (182)             
                                                                  O: node_318_output          f32(1x10x10x10) (183)     
------ ----------------- ----- --------------- ---------- ------- --------------------------- ------------------------- 
47     node_319          85    Conv2D          9010       400     I: node_318_output          f32(1x10x10x10) (183)     
                                                                  W: node_319_weights         f32(10x3x3x1) (188)       
                                                                  W: node_319_bias            f32(10) (186)             
                                                                  O: node_319_output          f32(1x10x10x10) (187)     
------ ----------------- ----- --------------- ---------- ------- --------------------------- ------------------------- 
48     node_312          78    Conv2D          6401       260     I: node_295_output          f32(1x10x10x64) (98)      
                                                                  S: node_312_scratch0                                  
                                                                  W: node_312_weights         f32(1x1x1x64) (163)       
                                                                  W: node_312_bias            f32(1) (160)              
                                                                  O: node_312_output          f32(1x10x10x1) (161)      
------ ----------------- ----- --------------- ---------- ------- --------------------------- ------------------------- 
49     node_313          79    Conv2D          901        40      I: node_312_output          f32(1x10x10x1) (161)      
                                                                  S: node_313_scratch0                                  
                                                                  W: node_313_weights         f32(1x3x3x1) (167)        
                                                                  W: node_313_bias            f32(1) (164)              
                                                                  O: node_313_output          f32(1x10x10x1) (165)      
------ ----------------- ----- --------------- ---------- ------- --------------------------- ------------------------- 
50     obj_32            103   Nonlinearity    1000       0       I: node_313_output          f32(1x10x10x1) (165)      
                                                                  O: obj_32_output            f32(1x1x100) (245)        
------ ----------------- ----- --------------- ---------- ------- --------------------------- ------------------------- 
51     node_306          72    Conv2D          25604      1040    I: node_295_output          f32(1x10x10x64) (98)      
                                                                  S: node_306_scratch0                                  
                                                                  W: node_306_weights         f32(4x1x1x64) (140)       
                                                                  W: node_306_bias            f32(4) (137)              
                                                                  O: node_306_output          f32(1x10x10x4) (138)      
------ ----------------- ----- --------------- ---------- ------- --------------------------- ------------------------- 
52     node_307          73    Conv2D          3604       160     I: node_306_output          f32(1x10x10x4) (138)      
                                                                  W: node_307_weights         f32(4x3x3x1) (143)        
                                                                  W: node_307_bias            f32(4) (141)              
                                                                  O: node_307_output          f32(1x10x10x4) (142)      
------ ----------------- ----- --------------- ---------- ------- --------------------------- ------------------------- 
53     node_300          66    Conv2D          6401       260     I: node_295_output          f32(1x10x10x64) (98)      
                                                                  S: node_300_scratch0                                  
                                                                  W: node_300_weights         f32(1x1x1x64) (118)       
                                                                  W: node_300_bias            f32(1) (115)              
                                                                  O: node_300_output          f32(1x10x10x1) (116)      
------ ----------------- ----- --------------- ---------- ------- --------------------------- ------------------------- 
54     node_301          67    Conv2D          901        40      I: node_300_output          f32(1x10x10x1) (116)      
                                                                  S: node_301_scratch0                                  
                                                                  W: node_301_weights         f32(1x3x3x1) (122)        
                                                                  W: node_301_bias            f32(1) (119)              
                                                                  O: node_301_output          f32(1x10x10x1) (120)      
------ ----------------- ----- --------------- ---------- ------- --------------------------- ------------------------- 
55     cls_32            94    Nonlinearity    1000       0       I: node_301_output          f32(1x10x10x1) (120)      
                                                                  O: cls_32_output            f32(1x1x100) (1)          
------ ----------------- ----- --------------- ---------- ------- --------------------------- ------------------------- 
56     node_268          43    Resize          0          0       I: node_263_output          f32(1x10x10x64) (69)      
                                                                  O: node_268_output          f32(1x20x20x64) (70)      
------ ----------------- ----- --------------- ---------- ------- --------------------------- ------------------------- 
57     node_269          44    Eltwise/add     25600      0       I: node_250_output          f32(1x20x20x64) (53)      
                                                                  I: node_268_output          f32(1x20x20x64) (53)      
                                                                  O: node_269_output          f32(1x20x20x64) (71)      
------ ----------------- ----- --------------- ---------- ------- --------------------------- ------------------------- 
58     node_270          45    Conv2D          1638464    16640   I: node_269_output          f32(1x20x20x64) (71)      
                                                                  S: node_270_scratch0                                  
                                                                  W: node_270_weights         f32(64x1x1x64) (75)       
                                                                  W: node_270_bias            f32(64) (72)              
                                                                  O: node_270_output          f32(1x20x20x64) (73)      
------ ----------------- ----- --------------- ---------- ------- --------------------------- ------------------------- 
59     node_497          46    Conv2D          230464     2560    I: node_270_output          f32(1x20x20x64) (73)      
                                                                  W: node_497_weights         f32(64x3x3x1) (231)       
                                                                  W: node_497_bias            f32(64) (229)             
                                                                  O: node_497_output          f32(1x20x20x64) (230)     
------ ----------------- ----- --------------- ---------- ------- --------------------------- ------------------------- 
60     node_273          47    Nonlinearity    25600      0       I: node_497_output          f32(1x20x20x64) (230)     
                                                                  O: node_273_output          f32(1x20x20x64) (76)      
------ ----------------- ----- --------------- ---------- ------- --------------------------- ------------------------- 
61     node_288          56    Conv2D          1638464    16640   I: node_273_output          f32(1x20x20x64) (76)      
                                                                  S: node_288_scratch0                                  
                                                                  W: node_288_weights         f32(64x1x1x64) (92)       
                                                                  W: node_288_bias            f32(64) (89)              
                                                                  O: node_288_output          f32(1x20x20x64) (90)      
------ ----------------- ----- --------------- ---------- ------- --------------------------- ------------------------- 
62     node_506          57    Conv2D          230464     2560    I: node_288_output          f32(1x20x20x64) (90)      
                                                                  W: node_506_weights         f32(64x3x3x1) (240)       
                                                                  W: node_506_bias            f32(64) (238)             
                                                                  O: node_506_output          f32(1x20x20x64) (239)     
------ ----------------- ----- --------------- ---------- ------- --------------------------- ------------------------- 
63     node_291          58    Nonlinearity    25600      0       I: node_506_output          f32(1x20x20x64) (239)     
                                                                  O: node_291_output          f32(1x20x20x64) (93)      
------ ----------------- ----- --------------- ---------- ------- --------------------------- ------------------------- 
64     node_316          82    Conv2D          256010     2600    I: node_291_output          f32(1x20x20x64) (93)      
                                                                  S: node_316_scratch0                                  
                                                                  W: node_316_weights         f32(10x1x1x64) (178)      
                                                                  W: node_316_bias            f32(10) (175)             
                                                                  O: node_316_output          f32(1x20x20x10) (176)     
------ ----------------- ----- --------------- ---------- ------- --------------------------- ------------------------- 
65     node_317          83    Conv2D          36010      400     I: node_316_output          f32(1x20x20x10) (176)     
                                                                  W: node_317_weights         f32(10x3x3x1) (181)       
                                                                  W: node_317_bias            f32(10) (179)             
                                                                  O: node_317_output          f32(1x20x20x10) (180)     
------ ----------------- ----- --------------- ---------- ------- --------------------------- ------------------------- 
66     node_310          76    Conv2D          25601      260     I: node_291_output          f32(1x20x20x64) (93)      
                                                                  S: node_310_scratch0                                  
                                                                  W: node_310_weights         f32(1x1x1x64) (155)       
                                                                  W: node_310_bias            f32(1) (152)              
                                                                  O: node_310_output          f32(1x20x20x1) (153)      
------ ----------------- ----- --------------- ---------- ------- --------------------------- ------------------------- 
67     node_311          77    Conv2D          3601       40      I: node_310_output          f32(1x20x20x1) (153)      
                                                                  S: node_311_scratch0                                  
                                                                  W: node_311_weights         f32(1x3x3x1) (159)        
                                                                  W: node_311_bias            f32(1) (156)              
                                                                  O: node_311_output          f32(1x20x20x1) (157)      
------ ----------------- ----- --------------- ---------- ------- --------------------------- ------------------------- 
68     obj_16            100   Nonlinearity    4000       0       I: node_311_output          f32(1x20x20x1) (157)      
                                                                  O: obj_16_output            f32(1x1x400) (244)        
------ ----------------- ----- --------------- ---------- ------- --------------------------- ------------------------- 
69     node_304          70    Conv2D          102404     1040    I: node_291_output          f32(1x20x20x64) (93)      
                                                                  S: node_304_scratch0                                  
                                                                  W: node_304_weights         f32(4x1x1x64) (133)       
                                                                  W: node_304_bias            f32(4) (130)              
                                                                  O: node_304_output          f32(1x20x20x4) (131)      
------ ----------------- ----- --------------- ---------- ------- --------------------------- ------------------------- 
70     node_305          71    Conv2D          14404      160     I: node_304_output          f32(1x20x20x4) (131)      
                                                                  W: node_305_weights         f32(4x3x3x1) (136)        
                                                                  W: node_305_bias            f32(4) (134)              
                                                                  O: node_305_output          f32(1x20x20x4) (135)      
------ ----------------- ----- --------------- ---------- ------- --------------------------- ------------------------- 
71     node_298          64    Conv2D          25601      260     I: node_291_output          f32(1x20x20x64) (93)      
                                                                  S: node_298_scratch0                                  
                                                                  W: node_298_weights         f32(1x1x1x64) (110)       
                                                                  W: node_298_bias            f32(1) (107)              
                                                                  O: node_298_output          f32(1x20x20x1) (108)      
------ ----------------- ----- --------------- ---------- ------- --------------------------- ------------------------- 
72     node_299          65    Conv2D          3601       40      I: node_298_output          f32(1x20x20x1) (108)      
                                                                  S: node_299_scratch0                                  
                                                                  W: node_299_weights         f32(1x3x3x1) (114)        
                                                                  W: node_299_bias            f32(1) (111)              
                                                                  O: node_299_output          f32(1x20x20x1) (112)      
------ ----------------- ----- --------------- ---------- ------- --------------------------- ------------------------- 
73     cls_16            91    Nonlinearity    4000       0       I: node_299_output          f32(1x20x20x1) (112)      
                                                                  O: cls_16_output            f32(1x1x400) (0)          
------ ----------------- ----- --------------- ---------- ------- --------------------------- ------------------------- 
74     node_278          48    Resize          0          0       I: node_273_output          f32(1x20x20x64) (76)      
                                                                  O: node_278_output          f32(1x40x40x64) (77)      
------ ----------------- ----- --------------- ---------- ------- --------------------------- ------------------------- 
75     node_279          49    Eltwise/add     102400     0       I: node_241_output          f32(1x40x40x64) (42)      
                                                                  I: node_278_output          f32(1x40x40x64) (42)      
                                                                  O: node_279_output          f32(1x40x40x64) (78)      
------ ----------------- ----- --------------- ---------- ------- --------------------------- ------------------------- 
76     node_280          50    Conv2D          6553664    16640   I: node_279_output          f32(1x40x40x64) (78)      
                                                                  S: node_280_scratch0                                  
                                                                  W: node_280_weights         f32(64x1x1x64) (82)       
                                                                  W: node_280_bias            f32(64) (79)              
                                                                  O: node_280_output          f32(1x40x40x64) (80)      
------ ----------------- ----- --------------- ---------- ------- --------------------------- ------------------------- 
77     node_500          51    Conv2D          921664     2560    I: node_280_output          f32(1x40x40x64) (80)      
                                                                  W: node_500_weights         f32(64x3x3x1) (234)       
                                                                  W: node_500_bias            f32(64) (232)             
                                                                  O: node_500_output          f32(1x40x40x64) (233)     
------ ----------------- ----- --------------- ---------- ------- --------------------------- ------------------------- 
78     node_283          52    Nonlinearity    102400     0       I: node_500_output          f32(1x40x40x64) (233)     
                                                                  O: node_283_output          f32(1x40x40x64) (83)      
------ ----------------- ----- --------------- ---------- ------- --------------------------- ------------------------- 
79     node_284          53    Conv2D          6553664    16640   I: node_283_output          f32(1x40x40x64) (83)      
                                                                  S: node_284_scratch0                                  
                                                                  W: node_284_weights         f32(64x1x1x64) (87)       
                                                                  W: node_284_bias            f32(64) (84)              
                                                                  O: node_284_output          f32(1x40x40x64) (85)      
------ ----------------- ----- --------------- ---------- ------- --------------------------- ------------------------- 
80     node_503          54    Conv2D          921664     2560    I: node_284_output          f32(1x40x40x64) (85)      
                                                                  W: node_503_weights         f32(64x3x3x1) (237)       
                                                                  W: node_503_bias            f32(64) (235)             
                                                                  O: node_503_output          f32(1x40x40x64) (236)     
------ ----------------- ----- --------------- ---------- ------- --------------------------- ------------------------- 
81     node_287          55    Nonlinearity    102400     0       I: node_503_output          f32(1x40x40x64) (236)     
                                                                  O: node_287_output          f32(1x40x40x64) (88)      
------ ----------------- ----- --------------- ---------- ------- --------------------------- ------------------------- 
82     node_314          80    Conv2D          1024010    2600    I: node_287_output          f32(1x40x40x64) (88)      
                                                                  S: node_314_scratch0                                  
                                                                  W: node_314_weights         f32(10x1x1x64) (171)      
                                                                  W: node_314_bias            f32(10) (168)             
                                                                  O: node_314_output          f32(1x40x40x10) (169)     
------ ----------------- ----- --------------- ---------- ------- --------------------------- ------------------------- 
83     node_315          81    Conv2D          144010     400     I: node_314_output          f32(1x40x40x10) (169)     
                                                                  W: node_315_weights         f32(10x3x3x1) (174)       
                                                                  W: node_315_bias            f32(10) (172)             
                                                                  O: node_315_output          f32(1x40x40x10) (173)     
------ ----------------- ----- --------------- ---------- ------- --------------------------- ------------------------- 
84     node_308          74    Conv2D          102401     260     I: node_287_output          f32(1x40x40x64) (88)      
                                                                  S: node_308_scratch0                                  
                                                                  W: node_308_weights         f32(1x1x1x64) (147)       
                                                                  W: node_308_bias            f32(1) (144)              
                                                                  O: node_308_output          f32(1x40x40x1) (145)      
------ ----------------- ----- --------------- ---------- ------- --------------------------- ------------------------- 
85     node_309          75    Conv2D          14401      40      I: node_308_output          f32(1x40x40x1) (145)      
                                                                  S: node_309_scratch0                                  
                                                                  W: node_309_weights         f32(1x3x3x1) (151)        
                                                                  W: node_309_bias            f32(1) (148)              
                                                                  O: node_309_output          f32(1x40x40x1) (149)      
------ ----------------- ----- --------------- ---------- ------- --------------------------- ------------------------- 
86     obj_8             97    Nonlinearity    16000      0       I: node_309_output          f32(1x40x40x1) (149)      
                                                                  O: obj_8_output             f32(1x1x1600) (246)       
------ ----------------- ----- --------------- ---------- ------- --------------------------- ------------------------- 
87     node_302          68    Conv2D          409604     1040    I: node_287_output          f32(1x40x40x64) (88)      
                                                                  S: node_302_scratch0                                  
                                                                  W: node_302_weights         f32(4x1x1x64) (126)       
                                                                  W: node_302_bias            f32(4) (123)              
                                                                  O: node_302_output          f32(1x40x40x4) (124)      
------ ----------------- ----- --------------- ---------- ------- --------------------------- ------------------------- 
88     node_303          69    Conv2D          57604      160     I: node_302_output          f32(1x40x40x4) (124)      
                                                                  W: node_303_weights         f32(4x3x3x1) (129)        
                                                                  W: node_303_bias            f32(4) (127)              
                                                                  O: node_303_output          f32(1x40x40x4) (128)      
------ ----------------- ----- --------------- ---------- ------- --------------------------- ------------------------- 
89     node_296          62    Conv2D          102401     260     I: node_287_output          f32(1x40x40x64) (88)      
                                                                  S: node_296_scratch0                                  
                                                                  W: node_296_weights         f32(1x1x1x64) (102)       
                                                                  W: node_296_bias            f32(1) (99)               
                                                                  O: node_296_output          f32(1x40x40x1) (100)      
------ ----------------- ----- --------------- ---------- ------- --------------------------- ------------------------- 
90     node_297          63    Conv2D          14401      40      I: node_296_output          f32(1x40x40x1) (100)      
                                                                  S: node_297_scratch0                                  
                                                                  W: node_297_weights         f32(1x3x3x1) (106)        
                                                                  W: node_297_bias            f32(1) (103)              
                                                                  O: node_297_output          f32(1x40x40x1) (104)      
------ ----------------- ----- --------------- ---------- ------- --------------------------- ------------------------- 
91     cls_8             88    Nonlinearity    16000      0       I: node_297_output          f32(1x40x40x1) (104)      
                                                                  O: cls_8_output             f32(1x1x1600) (2)         
------ ----------------- ----- --------------- ---------- ------- --------------------------- ------------------------- 



Number of operations per c-layer
------- ------ ------------------------------ ------------- -------------- 
c_id    m_id   name (type)                              #op           type 
------- ------ ------------------------------ ------------- -------------- 
0       2      input_Transpose (Transpose)          153,600   smul_f32_f32 
1       1      node_458 (Conv2D)                 11,059,216   smul_f32_f32 
2       2      node_211 (Nonlinearity)              409,600     op_f32_f32 
3       3      node_212 (Conv2D)                  6,553,616   smul_f32_f32 
4       4      node_461 (Conv2D_DW)               3,686,416   smul_f32_f32 
5       5      node_215 (Nonlinearity)              409,600     op_f32_f32 
6       6      node_216 (Pool_Max)                  409,600   smul_f32_f32 
7       7      node_217 (Conv2D)                  1,638,416   smul_f32_f32 
8       8      node_464 (Conv2D_DW)                 921,616   smul_f32_f32 
9       9      node_220 (Nonlinearity)              102,400     op_f32_f32 
10      10     node_221 (Conv2D)                  6,553,664   smul_f32_f32 
11      11     node_467 (Conv2D_DW)               3,686,464   smul_f32_f32 
12      12     node_224 (Nonlinearity)              409,600     op_f32_f32 
13      13     node_225 (Conv2D)                 26,214,464   smul_f32_f32 
14      14     node_470 (Conv2D_DW)               3,686,464   smul_f32_f32 
15      15     node_228 (Nonlinearity)              409,600     op_f32_f32 
16      16     node_229 (Conv2D)                 26,214,464   smul_f32_f32 
17      17     node_473 (Conv2D_DW)               3,686,464   smul_f32_f32 
18      18     node_232 (Nonlinearity)              409,600     op_f32_f32 
19      19     node_233 (Pool_Max)                  409,600   smul_f32_f32 
20      20     node_234 (Conv2D)                  6,553,664   smul_f32_f32 
21      21     node_476 (Conv2D_DW)                 921,664   smul_f32_f32 
22      22     node_237 (Nonlinearity)              102,400     op_f32_f32 
23      23     node_238 (Conv2D)                  6,553,664   smul_f32_f32 
24      24     node_479 (Conv2D_DW)                 921,664   smul_f32_f32 
25      25     node_241 (Nonlinearity)              102,400     op_f32_f32 
26      26     node_242 (Pool_Max)                  102,400   smul_f32_f32 
27      27     node_243 (Conv2D)                  1,638,464   smul_f32_f32 
28      28     node_482 (Conv2D_DW)                 230,464   smul_f32_f32 
29      29     node_246 (Nonlinearity)               25,600     op_f32_f32 
30      30     node_247 (Conv2D)                  1,638,464   smul_f32_f32 
31      31     node_485 (Conv2D_DW)                 230,464   smul_f32_f32 
32      32     node_250 (Nonlinearity)               25,600     op_f32_f32 
33      33     node_251 (Pool_Max)                   25,600   smul_f32_f32 
34      34     node_252 (Conv2D)                    409,664   smul_f32_f32 
35      35     node_488 (Conv2D_DW)                  57,664   smul_f32_f32 
36      36     node_255 (Nonlinearity)                6,400     op_f32_f32 
37      37     node_256 (Conv2D)                    409,664   smul_f32_f32 
38      38     node_491 (Conv2D_DW)                  57,664   smul_f32_f32 
39      39     node_259 (Nonlinearity)                6,400     op_f32_f32 
40      40     node_260 (Conv2D)                    409,664   smul_f32_f32 
41      41     node_494 (Conv2D_DW)                  57,664   smul_f32_f32 
42      42     node_263 (Nonlinearity)                6,400     op_f32_f32 
43      59     node_292 (Conv2D)                    409,664   smul_f32_f32 
44      60     node_509 (Conv2D_DW)                  57,664   smul_f32_f32 
45      61     node_295 (Nonlinearity)                6,400     op_f32_f32 
46      84     node_318 (Conv2D)                     64,010   smul_f32_f32 
47      85     node_319 (Conv2D_DW)                   9,010   smul_f32_f32 
48      78     node_312 (Conv2D)                      6,401   smul_f32_f32 
49      79     node_313 (Conv2D)                        901   smul_f32_f32 
50      103    obj_32 (Nonlinearity)                  1,000     op_f32_f32 
51      72     node_306 (Conv2D)                     25,604   smul_f32_f32 
52      73     node_307 (Conv2D_DW)                   3,604   smul_f32_f32 
53      66     node_300 (Conv2D)                      6,401   smul_f32_f32 
54      67     node_301 (Conv2D)                        901   smul_f32_f32 
55      94     cls_32 (Nonlinearity)                  1,000     op_f32_f32 
56      43     node_268 (Resize)                          0   smul_f32_f32 
57      44     node_269 (Eltwise/add)                25,600     op_f32_f32 
58      45     node_270 (Conv2D)                  1,638,464   smul_f32_f32 
59      46     node_497 (Conv2D_DW)                 230,464   smul_f32_f32 
60      47     node_273 (Nonlinearity)               25,600     op_f32_f32 
61      56     node_288 (Conv2D)                  1,638,464   smul_f32_f32 
62      57     node_506 (Conv2D_DW)                 230,464   smul_f32_f32 
63      58     node_291 (Nonlinearity)               25,600     op_f32_f32 
64      82     node_316 (Conv2D)                    256,010   smul_f32_f32 
65      83     node_317 (Conv2D_DW)                  36,010   smul_f32_f32 
66      76     node_310 (Conv2D)                     25,601   smul_f32_f32 
67      77     node_311 (Conv2D)                      3,601   smul_f32_f32 
68      100    obj_16 (Nonlinearity)                  4,000     op_f32_f32 
69      70     node_304 (Conv2D)                    102,404   smul_f32_f32 
70      71     node_305 (Conv2D_DW)                  14,404   smul_f32_f32 
71      64     node_298 (Conv2D)                     25,601   smul_f32_f32 
72      65     node_299 (Conv2D)                      3,601   smul_f32_f32 
73      91     cls_16 (Nonlinearity)                  4,000     op_f32_f32 
74      48     node_278 (Resize)                          0   smul_f32_f32 
75      49     node_279 (Eltwise/add)               102,400     op_f32_f32 
76      50     node_280 (Conv2D)                  6,553,664   smul_f32_f32 
77      51     node_500 (Conv2D_DW)                 921,664   smul_f32_f32 
78      52     node_283 (Nonlinearity)              102,400     op_f32_f32 
79      53     node_284 (Conv2D)                  6,553,664   smul_f32_f32 
80      54     node_503 (Conv2D_DW)                 921,664   smul_f32_f32 
81      55     node_287 (Nonlinearity)              102,400     op_f32_f32 
82      80     node_314 (Conv2D)                  1,024,010   smul_f32_f32 
83      81     node_315 (Conv2D_DW)                 144,010   smul_f32_f32 
84      74     node_308 (Conv2D)                    102,401   smul_f32_f32 
85      75     node_309 (Conv2D)                     14,401   smul_f32_f32 
86      97     obj_8 (Nonlinearity)                  16,000     op_f32_f32 
87      68     node_302 (Conv2D)                    409,604   smul_f32_f32 
88      69     node_303 (Conv2D_DW)                  57,604   smul_f32_f32 
89      62     node_296 (Conv2D)                    102,401   smul_f32_f32 
90      63     node_297 (Conv2D)                     14,401   smul_f32_f32 
91      88     cls_8 (Nonlinearity)                  16,000     op_f32_f32 
------- ------ ------------------------------ ------------- -------------- 
total                                           139,559,296 

Number of operation types
---------------- ------------- ----------- 
operation type               #           % 
---------------- ------------- ----------- 
smul_f32_f32       136,701,296       98.0% 
op_f32_f32           2,858,000        2.0% 

Complexity report (model)
------ ---------- ------------------------- ------------------------- -------- 
m_id   name       c_macc                    c_rom                     c_id     
------ ---------- ------------------------- ------------------------- -------- 
1      node_458   |||||||            7.9%   ||                 0.6%   [1]      
2      node_211   |                  0.4%   |                  0.0%   [0, 2]   
3      node_212   ||||               4.7%   |                  0.4%   [3]      
4      node_461   |||                2.6%   |                  0.2%   [4]      
5      node_215   |                  0.3%   |                  0.0%   [5]      
6      node_216   |                  0.3%   |                  0.0%   [6]      
7      node_217   |                  1.2%   |                  0.4%   [7]      
8      node_464   |                  0.7%   |                  0.2%   [8]      
9      node_220   |                  0.1%   |                  0.0%   [9]      
10     node_221   ||||               4.7%   ||||               1.5%   [10]     
11     node_467   |||                2.6%   |||                0.9%   [11]     
12     node_224   |                  0.3%   |                  0.0%   [12]     
13     node_225   ||||||||||||||||  18.8%   ||||||||||||||||   5.6%   [13]     
14     node_470   |||                2.6%   |||                0.9%   [14]     
15     node_228   |                  0.3%   |                  0.0%   [15]     
16     node_229   ||||||||||||||||  18.8%   ||||||||||||||||   5.6%   [16]     
17     node_473   |||                2.6%   |||                0.9%   [17]     
18     node_232   |                  0.3%   |                  0.0%   [18]     
19     node_233   |                  0.3%   |                  0.0%   [19]     
20     node_234   ||||               4.7%   ||||||||||||||||   5.6%   [20]     
21     node_476   |                  0.7%   |||                0.9%   [21]     
22     node_237   |                  0.1%   |                  0.0%   [22]     
23     node_238   ||||               4.7%   ||||||||||||||||   5.6%   [23]     
24     node_479   |                  0.7%   |||                0.9%   [24]     
25     node_241   |                  0.1%   |                  0.0%   [25]     
26     node_242   |                  0.1%   |                  0.0%   [26]     
27     node_243   |                  1.2%   ||||||||||||||||   5.6%   [27]     
28     node_482   |                  0.2%   |||                0.9%   [28]     
29     node_246   |                  0.0%   |                  0.0%   [29]     
30     node_247   |                  1.2%   ||||||||||||||||   5.6%   [30]     
31     node_485   |                  0.2%   |||                0.9%   [31]     
32     node_250   |                  0.0%   |                  0.0%   [32]     
33     node_251   |                  0.0%   |                  0.0%   [33]     
34     node_252   |                  0.3%   ||||||||||||||||   5.6%   [34]     
35     node_488   |                  0.0%   |||                0.9%   [35]     
36     node_255   |                  0.0%   |                  0.0%   [36]     
37     node_256   |                  0.3%   ||||||||||||||||   5.6%   [37]     
38     node_491   |                  0.0%   |||                0.9%   [38]     
39     node_259   |                  0.0%   |                  0.0%   [39]     
40     node_260   |                  0.3%   ||||||||||||||||   5.6%   [40]     
41     node_494   |                  0.0%   |||                0.9%   [41]     
42     node_263   |                  0.0%   |                  0.0%   [42]     
43     node_268   |                  0.0%   |                  0.0%   [56]     
44     node_269   |                  0.0%   |                  0.0%   [57]     
45     node_270   |                  1.2%   ||||||||||||||||   5.6%   [58]     
46     node_497   |                  0.2%   |||                0.9%   [59]     
47     node_273   |                  0.0%   |                  0.0%   [60]     
48     node_278   |                  0.0%   |                  0.0%   [74]     
49     node_279   |                  0.1%   |                  0.0%   [75]     
50     node_280   ||||               4.7%   ||||||||||||||||   5.6%   [76]     
51     node_500   |                  0.7%   |||                0.9%   [77]     
52     node_283   |                  0.1%   |                  0.0%   [78]     
53     node_284   ||||               4.7%   ||||||||||||||||   5.6%   [79]     
54     node_503   |                  0.7%   |||                0.9%   [80]     
55     node_287   |                  0.1%   |                  0.0%   [81]     
56     node_288   |                  1.2%   ||||||||||||||||   5.6%   [61]     
57     node_506   |                  0.2%   |||                0.9%   [62]     
58     node_291   |                  0.0%   |                  0.0%   [63]     
59     node_292   |                  0.3%   ||||||||||||||||   5.6%   [43]     
60     node_509   |                  0.0%   |||                0.9%   [44]     
61     node_295   |                  0.0%   |                  0.0%   [45]     
62     node_296   |                  0.1%   |                  0.1%   [89]     
63     node_297   |                  0.0%   |                  0.0%   [90]     
64     node_298   |                  0.0%   |                  0.1%   [71]     
65     node_299   |                  0.0%   |                  0.0%   [72]     
66     node_300   |                  0.0%   |                  0.1%   [53]     
67     node_301   |                  0.0%   |                  0.0%   [54]     
68     node_302   |                  0.3%   |                  0.4%   [87]     
69     node_303   |                  0.0%   |                  0.1%   [88]     
70     node_304   |                  0.1%   |                  0.4%   [69]     
71     node_305   |                  0.0%   |                  0.1%   [70]     
72     node_306   |                  0.0%   |                  0.4%   [51]     
73     node_307   |                  0.0%   |                  0.1%   [52]     
74     node_308   |                  0.1%   |                  0.1%   [84]     
75     node_309   |                  0.0%   |                  0.0%   [85]     
76     node_310   |                  0.0%   |                  0.1%   [66]     
77     node_311   |                  0.0%   |                  0.0%   [67]     
78     node_312   |                  0.0%   |                  0.1%   [48]     
79     node_313   |                  0.0%   |                  0.0%   [49]     
80     node_314   |                  0.7%   |||                0.9%   [82]     
81     node_315   |                  0.1%   |                  0.1%   [83]     
82     node_316   |                  0.2%   |||                0.9%   [64]     
83     node_317   |                  0.0%   |                  0.1%   [65]     
84     node_318   |                  0.0%   |||                0.9%   [46]     
85     node_319   |                  0.0%   |                  0.1%   [47]     
88     cls_8      |                  0.0%   |                  0.0%   [91]     
91     cls_16     |                  0.0%   |                  0.0%   [73]     
94     cls_32     |                  0.0%   |                  0.0%   [55]     
97     obj_8      |                  0.0%   |                  0.0%   [86]     
100    obj_16     |                  0.0%   |                  0.0%   [68]     
103    obj_32     |                  0.0%   |                  0.0%   [50]     
------ ---------- ------------------------- ------------------------- -------- 
macc=139,559,296 weights=295,360 act=2,517,164 ram_io=0
 
 Requested memory size by section - "stm32h7" target
 ------------------------------ -------- --------- ------- ----------- 
 module                             text    rodata    data         bss 
 ------------------------------ -------- --------- ------- ----------- 
 network.o                        11,854       136   2,164         136 
 NetworkRuntime1201_CM7_GCC.a      5,316        16       0           0 
 lib (toolchain)*                    324       328       0           0 
 ------------------------------ -------- --------- ------- ----------- 
 RT total**                       17,494       480   2,164         136 
 ------------------------------ -------- --------- ------- ----------- 
 weights                               0   295,360       0           0 
 activations                           0         0       0   2,517,164 
 states                                0         0       0           0 
 io                                    0         0       0           0 
 ------------------------------ -------- --------- ------- ----------- 
 TOTAL                            17,494   295,840   2,164   2,517,300 
 ------------------------------ -------- --------- ------- ----------- 
 *  toolchain objects (libm/libgcc*)
 ** RT AI runtime objects (kernels+infrastructure)
  
  Summary - "stm32h7" target
  --------------------------------------------------
               FLASH (ro)     %*    RAM (rw)      % 
  --------------------------------------------------
  RT total         20,138   6.4%       2,300   0.1% 
  --------------------------------------------------
  TOTAL           315,498          2,519,464        
  --------------------------------------------------
  *  rt/total


Generated files (5)
------------------------------------------------------------------------------------------------------------ 
D:\EmbeddedSystem\Practice\BigHomework\Face_Recongnition\.ai\run\generate-1\st_ai_output\network_data.h      
D:\EmbeddedSystem\Practice\BigHomework\Face_Recongnition\.ai\run\generate-1\st_ai_output\network_data.c      
D:\EmbeddedSystem\Practice\BigHomework\Face_Recongnition\.ai\run\generate-1\st_ai_output\network.h           
D:\EmbeddedSystem\Practice\BigHomework\Face_Recongnition\.ai\run\generate-1\st_ai_output\network.c           
D:\EmbeddedSystem\Practice\BigHomework\Face_Recongnition\.ai\run\generate-1\st_ai_output\network_details.h   
